Training set (40469, 32, 32, 1) (40469, 5)
Validation set (6000, 32, 32, 1) (6000, 5)
Test set      (13068, 32, 32, 1) (13068, 5)
_________________________________________________________________
Layer (type)                 Output Shape              Param #   
=================================================================
input (InputLayer)           (None, 32, 32, 1)         0         
_________________________________________________________________
conv2d_1 (Conv2D)            (None, 32, 32, 32)        832       
_________________________________________________________________
conv2d_2 (Conv2D)            (None, 32, 32, 32)        25632     
_________________________________________________________________
max_pooling2d_1 (MaxPooling2 (None, 16, 16, 32)        0         
_________________________________________________________________
dropout_1 (Dropout)          (None, 16, 16, 32)        0         
_________________________________________________________________
conv2d_3 (Conv2D)            (None, 16, 16, 64)        51264     
_________________________________________________________________
conv2d_4 (Conv2D)            (None, 16, 16, 64)        102464    
_________________________________________________________________
max_pooling2d_2 (MaxPooling2 (None, 8, 8, 64)          0         
_________________________________________________________________
dropout_2 (Dropout)          (None, 8, 8, 64)          0         
_________________________________________________________________
conv2d_5 (Conv2D)            (None, 8, 8, 128)         204928    
_________________________________________________________________
flatten_1 (Flatten)          (None, 8192)              0         
_________________________________________________________________
dense_1 (Dense)              (None, 256)               2097408   
_________________________________________________________________
dropout_3 (Dropout)          (None, 256)               0         
_________________________________________________________________
dense_2 (Dense)              (None, 253)               65021     
_________________________________________________________________
dense_3 (Dense)              (None, 55)                13970     
=================================================================
Total params: 2,561,519
Trainable params: 2,561,519
Non-trainable params: 0
_________________________________________________________________
Epoch 1/1

 1000/46469 [..............................] - ETA: 6:01 - loss: 2918.8438
 2000/46469 [>.............................] - ETA: 6:11 - loss: 2006.6586
 3000/46469 [>.............................] - ETA: 6:10 - loss: 1499.1510
…
